…
o detect)
The argument `trust_remote_code` is to be used with Auto classes. It has no effect here and is ignored.
Loading checkpoint shards:   0%|          | 0/3 [00:00<?, ?it/s]Loading checkpoint shards:  33%|███▎      | 1/3 [00:06<00:12,  6.38s/it]Loading checkpoint shards:  67%|██████▋   | 2/3 [00:12<00:06,  6.02s/it]Loading checkpoint shards: 100%|██████████| 3/3 [00:16<00:00,  5.03s/it]Loading checkpoint shards: 100%|██████████| 3/3 [00:16<00:00,  5.33s/it]
PeftModelForCausalLM(
  (base_model): LoraModel(
    (model): LlamaForCausalLM(
      (model): LlamaModel(
        (embed_tokens): Embedding(32000, 5120, padding_idx=0)
        (layers): ModuleList(
          (0-39): 40 x LlamaDecoderLayer(
            (self_attn): LlamaAttention(
              (q_proj): Linear(
                in_features=5120, out_features=5120, bias=False
                (lora_dropout): ModuleDict(
                  (default): Dropout(p=0.05, inplace=False)
                )
                (lora_A): ModuleDict(
                  (default): Linear(in_features=5120, out_features=8, bias=False)
                )
                (lora_B): ModuleDict(
                  (default): Linear(in_features=8, out_features=5120, bias=False)
                )
                (lora_embedding_A): ParameterDict()
                (lora_embedding_B): ParameterDict()
              )
              (k_proj): Linear(in_features=5120, out_features=5120, bias=False)
              (v_proj): Linear(
                in_features=5120, out_features=5120, bias=False
                (lora_dropout): ModuleDict(
                  (default): Dropout(p=0.05, inplace=False)
                )
                (lora_A): ModuleDict(
                  (default): Linear(in_features=5120, out_features=8, bias=False)
                )
                (lora_B): ModuleDict(
                  (default): Linear(in_features=8, out_features=5120, bias=False)
                )
                (lora_embedding_A): ParameterDict()
                (lora_embedding_B): ParameterDict()
              )
              (o_proj): Linear(in_features=5120, out_features=5120, bias=False)
              (rotary_emb): LlamaRotaryEmbedding()
            )
            (mlp): LlamaMLP(
              (gate_proj): Linear(in_features=5120, out_features=13824, bias=False)
              (up_proj): Linear(in_features=5120, out_features=13824, bias=False)
              (down_proj): Linear(in_features=13824, out_features=5120, bias=False)
              (act_fn): SiLUActivation()
            )
            (input_layernorm): LlamaRMSNorm()
            (post_attention_layernorm): LlamaRMSNorm()
          )
        )
        (norm): LlamaRMSNorm()
      )
      (lm_head): Linear(in_features=5120, out_features=32000, bias=False)
    )
  )
)
PeftModelForCausalLM(
  (base_model): LoraModel(
    (model): PeftModelForCausalLM(
      (base_model): LoraModel(
        (model): LlamaForCausalLM(
          (model): LlamaModel(
            (embed_tokens): Embedding(32001, 5120)
            (layers): ModuleList(
              (0-39): 40 x LlamaDecoderLayer(
                (self_attn): LlamaAttention(
                  (q_proj): Linear(
                    in_features=5120, out_features=5120, bias=False
                    (lora_dropout): ModuleDict(
                      (default): Dropout(p=0.05, inplace=False)
                    )
                    (lora_A): ModuleDict(
                      (default): Linear(in_features=5120, out_features=8, bias=False)
                    )
                    (lora_B): ModuleDict(
                      (default): Linear(in_features=8, out_features=5120, bias=False)
                    )
                    (lora_embedding_A): ParameterDict()
                    (lora_embedding_B): ParameterDict()
                  )
                  (k_proj): Linear(in_features=5120, out_features=5120, bias=False)
                  (v_proj): Linear(
                    in_features=5120, out_features=5120, bias=False
                    (lora_dropout): ModuleDict(
                      (default): Dropout(p=0.05, inplace=False)
                    )
                    (lora_A): ModuleDict(
                      (default): Linear(in_features=5120, out_features=8, bias=False)
                    )
                    (lora_B): ModuleDict(
                      (default): Linear(in_features=8, out_features=5120, bias=False)
                    )
                    (lora_embedding_A): ParameterDict()
                    (lora_embedding_B): ParameterDict()
                  )
                  (o_proj): Linear(in_features=5120, out_features=5120, bias=False)
                  (rotary_emb): LlamaRotaryEmbedding()
                )
                (mlp): LlamaMLP(
                  (gate_proj): Linear(in_features=5120, out_features=13824, bias=False)
                  (up_proj): Linear(in_features=5120, out_features=13824, bias=False)
                  (down_proj): Linear(in_features=13824, out_features=5120, bias=False)
                  (act_fn): SiLUActivation()
                )
                (input_layernorm): LlamaRMSNorm()
                (post_attention_layernorm): LlamaRMSNorm()
              )
            )
            (norm): LlamaRMSNorm()
          )
          (lm_head): Linear(in_features=5120, out_features=32001, bias=False)
        )
      )
    )
  )
)
  0%|          | 0/5 [00:00<?, ?it/s]This is a friendly reminder - the current text generation call will exceed the model's predefined maximum length (4096). Depending on the model, you may observe exceptions, performance degradation, or nothing at all.
the inference time is 10394.212640821934 ms
Below is an instruction that describes a task, paired with an input that provides further context. Write a response that appropriately completes the request.
…
