…
Loading checkpoint shards:   0%|          | 0/3 [00:00<?, ?it/s]Loading checkpoint shards:  33%|███▎      | 1/3 [00:20<00:40, 20.20s/it]Loading checkpoint shards:  67%|██████▋   | 2/3 [00:45<00:23, 23.10s/it]Loading checkpoint shards: 100%|██████████| 3/3 [00:56<00:00, 17.83s/it]Loading checkpoint shards: 100%|██████████| 3/3 [00:56<00:00, 18.97s/it]
You are using the legacy behaviour of the <class 'transformers.models.llama.tokenization_llama.LlamaTokenizer'>. This means that tokens that come after special tokens will not be properly handled. We recommend you to read the related pull request available at https://github.com/huggingface/transformers/pull/24565
PeftModelForCausalLM(
  (base_model): LoraModel(
    (model): LlamaForCausalLM(
      (model): LlamaModel(
        (embed_tokens): Embedding(55297, 5120)
        (layers): ModuleList(
          (0-39): 40 x LlamaDecoderLayer(
            (self_attn): LlamaAttention(
              (q_proj): Linear(
                in_features=5120, out_features=5120, bias=False
                (lora_dropout): ModuleDict(
                  (default): Dropout(p=0.05, inplace=False)
                )
                (lora_A): ModuleDict(
                  (default): Linear(in_features=5120, out_features=8, bias=False)
                )
                (lora_B): ModuleDict(
                  (default): Linear(in_features=8, out_features=5120, bias=False)
                )
                (lora_embedding_A): ParameterDict()
                (lora_embedding_B): ParameterDict()
              )
              (k_proj): Linear(in_features=5120, out_features=5120, bias=False)
              (v_proj): Linear(
                in_features=5120, out_features=5120, bias=False
                (lora_dropout): ModuleDict(
                  (default): Dropout(p=0.05, inplace=False)
                )
                (lora_A): ModuleDict(
                  (default): Linear(in_features=5120, out_features=8, bias=False)
                )
                (lora_B): ModuleDict(
                  (default): Linear(in_features=8, out_features=5120, bias=False)
                )
                (lora_embedding_A): ParameterDict()
                (lora_embedding_B): ParameterDict()
              )
              (o_proj): Linear(in_features=5120, out_features=5120, bias=False)
              (rotary_emb): LlamaRotaryEmbedding()
            )
            (mlp): LlamaMLP(
              (gate_proj): Linear(in_features=5120, out_features=13824, bias=False)
              (up_proj): Linear(in_features=5120, out_features=13824, bias=False)
              (down_proj): Linear(in_features=13824, out_features=5120, bias=False)
              (act_fn): SiLUActivation()
            )
            (input_layernorm): LlamaRMSNorm()
            (post_attention_layernorm): LlamaRMSNorm()
          )
        )
        (norm): LlamaRMSNorm()
      )
      (lm_head): Linear(in_features=5120, out_features=55297, bias=False)
    )
  )
)
  0%|          | 0/1000 [00:00<?, ?it/s]This is a friendly reminder - the current text generation call will exceed the model's predefined maximum length (4096). Depending on the model, you may observe exceptions, performance degradation, or nothing at all.
the inference time is 5053.432866930962 ms
下面有一条描述任务的指令。请编写一个合适的响应来完成这个任务。

### 指令：
…
