…
o detect)
The argument `trust_remote_code` is to be used with Auto classes. It has no effect here and is ignored.
Loading checkpoint shards:   0%|          | 0/3 [00:00<?, ?it/s]Loading checkpoint shards:  33%|███▎      | 1/3 [00:05<00:10,  5.31s/it]Loading checkpoint shards:  67%|██████▋   | 2/3 [00:10<00:05,  5.08s/it]Loading checkpoint shards: 100%|██████████| 3/3 [00:27<00:00, 10.70s/it]Loading checkpoint shards: 100%|██████████| 3/3 [00:27<00:00,  9.21s/it]
PeftModelForCausalLM(
  (base_model): LoraModel(
    (model): LlamaForCausalLM(
      (model): LlamaModel(
        (embed_tokens): Embedding(32001, 5120)
        (layers): ModuleList(
          (0-39): 40 x LlamaDecoderLayer(
            (self_attn): LlamaAttention(
              (q_proj): Linear(
                in_features=5120, out_features=5120, bias=False
                (lora_dropout): ModuleDict(
                  (default): Dropout(p=0.05, inplace=False)
                )
                (lora_A): ModuleDict(
                  (default): Linear(in_features=5120, out_features=8, bias=False)
                )
                (lora_B): ModuleDict(
                  (default): Linear(in_features=8, out_features=5120, bias=False)
                )
                (lora_embedding_A): ParameterDict()
                (lora_embedding_B): ParameterDict()
              )
              (k_proj): Linear(in_features=5120, out_features=5120, bias=False)
              (v_proj): Linear(
                in_features=5120, out_features=5120, bias=False
                (lora_dropout): ModuleDict(
                  (default): Dropout(p=0.05, inplace=False)
                )
                (lora_A): ModuleDict(
                  (default): Linear(in_features=5120, out_features=8, bias=False)
                )
                (lora_B): ModuleDict(
                  (default): Linear(in_features=8, out_features=5120, bias=False)
                )
                (lora_embedding_A): ParameterDict()
                (lora_embedding_B): ParameterDict()
              )
              (o_proj): Linear(in_features=5120, out_features=5120, bias=False)
              (rotary_emb): LlamaRotaryEmbedding()
            )
            (mlp): LlamaMLP(
              (gate_proj): Linear(in_features=5120, out_features=13824, bias=False)
              (up_proj): Linear(in_features=5120, out_features=13824, bias=False)
              (down_proj): Linear(in_features=13824, out_features=5120, bias=False)
              (act_fn): SiLUActivation()
            )
            (input_layernorm): LlamaRMSNorm()
            (post_attention_layernorm): LlamaRMSNorm()
          )
        )
        (norm): LlamaRMSNorm()
      )
      (lm_head): Linear(in_features=5120, out_features=32001, bias=False)
    )
  )
)
Asking to pad to max_length but no maximum length is provided and the model has no predefined maximum length. Default to no padding.
Asking to truncate to max_length but no maximum length is provided and the model has no predefined maximum length. Default to no truncation.
the inference time is 4800.548015162349 ms
Below is an instruction that describes a task. 
…
