…
l_accelerator.py:133:get_accelerator] Setting ds_accelerator to cuda (auto detect)
The argument `trust_remote_code` is to be used with Auto classes. It has no effect here and is ignored.
Loading checkpoint shards:   0%|          | 0/2 [00:00<?, ?it/s]Loading checkpoint shards:  50%|█████     | 1/2 [00:05<00:05,  5.67s/it]Loading checkpoint shards: 100%|██████████| 2/2 [00:07<00:00,  3.39s/it]Loading checkpoint shards: 100%|██████████| 2/2 [00:07<00:00,  3.73s/it]
PeftModelForCausalLM(
  (base_model): LoraModel(
    (model): LlamaForCausalLM(
      (model): LlamaModel(
        (embed_tokens): Embedding(32000, 4096, padding_idx=0)
        (layers): ModuleList(
          (0-31): 32 x LlamaDecoderLayer(
            (self_attn): LlamaAttention(
              (q_proj): Linear(
                in_features=4096, out_features=4096, bias=False
                (lora_dropout): ModuleDict(
                  (default): Dropout(p=0.05, inplace=False)
                )
                (lora_A): ModuleDict(
                  (default): Linear(in_features=4096, out_features=8, bias=False)
                )
                (lora_B): ModuleDict(
                  (default): Linear(in_features=8, out_features=4096, bias=False)
                )
                (lora_embedding_A): ParameterDict()
                (lora_embedding_B): ParameterDict()
              )
              (k_proj): Linear(in_features=4096, out_features=4096, bias=False)
              (v_proj): Linear(
                in_features=4096, out_features=4096, bias=False
                (lora_dropout): ModuleDict(
                  (default): Dropout(p=0.05, inplace=False)
                )
                (lora_A): ModuleDict(
                  (default): Linear(in_features=4096, out_features=8, bias=False)
                )
                (lora_B): ModuleDict(
                  (default): Linear(in_features=8, out_features=4096, bias=False)
                )
                (lora_embedding_A): ParameterDict()
                (lora_embedding_B): ParameterDict()
              )
              (o_proj): Linear(in_features=4096, out_features=4096, bias=False)
              (rotary_emb): LlamaRotaryEmbedding()
            )
            (mlp): LlamaMLP(
              (gate_proj): Linear(in_features=4096, out_features=11008, bias=False)
              (up_proj): Linear(in_features=4096, out_features=11008, bias=False)
              (down_proj): Linear(in_features=11008, out_features=4096, bias=False)
              (act_fn): SiLUActivation()
            )
            (input_layernorm): LlamaRMSNorm()
            (post_attention_layernorm): LlamaRMSNorm()
          )
        )
        (norm): LlamaRMSNorm()
      )
      (lm_head): Linear(in_features=4096, out_features=32000, bias=False)
    )
  )
)
PeftModelForCausalLM(
  (base_model): LoraModel(
    (model): PeftModelForCausalLM(
      (base_model): LoraModel(
        (model): LlamaForCausalLM(
          (model): LlamaModel(
            (embed_tokens): Embedding(32001, 4096)
            (layers): ModuleList(
              (0-31): 32 x LlamaDecoderLayer(
                (self_attn): LlamaAttention(
                  (q_proj): Linear(
                    in_features=4096, out_features=4096, bias=False
                    (lora_dropout): ModuleDict(
                      (default): Dropout(p=0.05, inplace=False)
                    )
                    (lora_A): ModuleDict(
                      (default): Linear(in_features=4096, out_features=8, bias=False)
                    )
                    (lora_B): ModuleDict(
                      (default): Linear(in_features=8, out_features=4096, bias=False)
                    )
                    (lora_embedding_A): ParameterDict()
                    (lora_embedding_B): ParameterDict()
                  )
                  (k_proj): Linear(in_features=4096, out_features=4096, bias=False)
                  (v_proj): Linear(
                    in_features=4096, out_features=4096, bias=False
                    (lora_dropout): ModuleDict(
                      (default): Dropout(p=0.05, inplace=False)
                    )
                    (lora_A): ModuleDict(
                      (default): Linear(in_features=4096, out_features=8, bias=False)
                    )
                    (lora_B): ModuleDict(
                      (default): Linear(in_features=8, out_features=4096, bias=False)
                    )
                    (lora_embedding_A): ParameterDict()
                    (lora_embedding_B): ParameterDict()
                  )
                  (o_proj): Linear(in_features=4096, out_features=4096, bias=False)
                  (rotary_emb): LlamaRotaryEmbedding()
                )
                (mlp): LlamaMLP(
                  (gate_proj): Linear(in_features=4096, out_features=11008, bias=False)
                  (up_proj): Linear(in_features=4096, out_features=11008, bias=False)
                  (down_proj): Linear(in_features=11008, out_features=4096, bias=False)
                  (act_fn): SiLUActivation()
                )
                (input_layernorm): LlamaRMSNorm()
                (post_attention_layernorm): LlamaRMSNorm()
              )
            )
            (norm): LlamaRMSNorm()
          )
          (lm_head): Linear(in_features=4096, out_features=32001, bias=False)
        )
      )
    )
  )
)
Asking to pad to max_length but no maximum length is provided and the model has no predefined maximum length. Default to no padding.
Asking to truncate to max_length but no maximum length is provided and the model has no predefined maximum length. Default to no truncation.
/GPUFS/nsccgz_ywang_zfd/anaconda3/envs/lora/li
…
